gesture_model.pth (torch, 86984 bytes, 8 tensors)

fc1.weight f4 [128, 63]
0	0x3d98ff5a	0.074705794
1	0xbd2b0f70	-0.04176277
2	0xbda3cdac	-0.07998213
3	0xbebbd7ed	-0.36688176
4	0xbd8e941f	-0.069618456
5	0xbe686220	-0.22693682
6	0xbe09d816	-0.13461336
7	0xbded66f4	-0.115919024
8	0xbe0c29e1	-0.1368785
9	0xbe4735a2	-0.19454053
10	0xbc546ca2	-0.012965353
11	0x3e9d87f7	0.30767795
12	0xbe2ceda8	-0.16887534
13	0xbc22d045	-0.009937351
14	0x3ea8b328	0.32949185
15	0x3e515b77	0.20445047
16	0x3ddaedc2	0.1068988
17	0xbd2966ec	-0.04135792
18	0x3d2f509f	0.042801496
19	0xbdce34fd	-0.100687005
20	0x3e87d364	0.26528466
21	0x3d5b092a	0.053475536
22	0x3cdc7584	0.026911505
23	0x3e52499a	0.2053589
24	0x3e4e2936	0.20132908
25	0xbcb508ac	-0.022098862
26	0x3e678a35	0.22611316
27	0x3e602f8e	0.2189314
28	0x3e1a20f6	0.15051636
29	0x3e0fd10d	0.1404459
30	0x3e01a661	0.12661125
31	0x3c4ecc41	0.01262194
32	0x3eccde04	0.40013134
33	0x3dedf0ce	0.116181955
34	0xbded6449	-0.115913935
35	0x3e63804a	0.22216907
36	0x3dea5a3b	0.11442991
37	0x3d10a9d0	0.035318196
38	0x3e8bc7d5	0.27300897
39	0x3e2fea46	0.17179212
40	0x3e129ba1	0.1431718
41	0x3e8b0c58	0.27157855
42	0x3e041edd	0.12902398
43	0xbd63781d	-0.05553447
44	0x3eded1da	0.4351948
45	0x3d21511a	0.039383985
46	0xbbd7f0c6	-0.0065899817
47	0x3ec76e15	0.38951173
48	0x3e3a4e27	0.18193875
49	0xbe18771f	-0.14889191
50	0x3e971094	0.29504836
51	0x3e1823b3	0.14857368
52	0x3e65c0bf	0.22436808
53	0x3e79fa5d	0.24411912
54	0xbd6ac8e6	-0.057320498
55	0x3e13fdd1	0.14452292
56	0x3e80ebff	0.2518005
57	0xbca7f3cb	-0.020501992
58	0x3d958fb7	0.07302802
59	0x3ee64fa9	0.4498265
60	0x3d688b41	0.056773428
61	0xbe13c220	-0.14429522
62	0x3ed89c8d	0.4230694
63	0xbd5caaf2	-0.053873964
64	0xbd72e3b4	-0.059299186
65	0xbcd1ac70	-0.02559492
66	0x3b9bb5ae	0.0047518825
67	0x3e785ed1	0.2425492
68	0x3f195ae6	0.59904325
69	0x3d86257b	0.065501176
70	0x3e354a5a	0.17704144
71	0x3e30a966	0.1725212
72	0x3d065ef5	0.0328054
73	0x3e44d194	0.19220573
74	0x3d1ab6a4	0.037771836
75	0xbe5517d8	-0.20809877
76	0x3e893788	0.2680018
77	0xbd72451f	-0.05914795
78	0x3dd353b7	0.10318702
79	0x3e0e73f6	0.13911423
80	0x3e5d3b2c	0.21604604
81	0x3d460afa	0.04835031
82	0xbdd255a9	-0.10270245
83	0x3e345b00	0.17612839
84	0xbd1b9520	-0.037984014
85	0xbd541351	-0.051776234
86	0x3d1ba2b7	0.037996974
87	0x3e7de8eb	0.24795882
88	0xbd81da29	-0.06340439
89	0x3c4bb6ea	0.012433747
90	0x3d8409d6	0.064471886
91	0xbcb82c83	-0.022482162
92	0x3d21f3e5	0.039539237
93	0xbe1315a3	-0.14363723
94	0xbe2a6084	-0.1663838
95	0x3dda19cb	0.10649451
96	0x3d3c96f0	0.046042383
97	0xbde94c15	-0.113914646
98	0x3d6a77fe	0.05724334
99	0x3dd81b91	0.10552133
100	0xbe709e04	-0.23497778
101	0xbe185ca3	-0.14879088
102	0xbd1770b6	-0.036972724
103	0xbe045057	-0.12921272
104	0xbe03c85c	-0.128694
105	0xbe5f46c3	-0.21804337
106	0xbc8b5e1c	-0.017012648
107	0x3d27c18e	0.040956073
108	0xbd9a6267	-0.075383
109	0x3dd086aa	0.10181935
110	0x3d66b4e3	0.05632485
111	0x3e6cd7c5	0.23129185
112	0x3d97c16a	0.07409938
113	0xbe1898d8	-0.14902055
114	0x3d53dbb6	0.051723205
115	0x3d4fb277	0.050707307
116	0xbd8e012c	-0.06933817
117	0xbe7fae0d	-0.24968739
118	0x3ca7c7ea	0.020481069
119	0x3d462014	0.048370436
120	0x3b4263e1	0.0029661583
121	0x3ae25b30	0.0017269608
122	0xbd8ae141	-0.06781245
123	0x3b8a2a54	0.0042164717
124	0x3e09e11d	0.1346478
125	0x3df88c1b	0.12136098
126	0xbdf0cc56	-0.11757724
127	0xbd800673	-0.0625123
128	0xbc81eee4	-0.015860982
129	0xbd9512f8	-0.072790086
130	0xbcb9fa51	-0.022702368
131	0x3dd6b604	0.104839355
132	0xbe036d48	-0.12834656
133	0x3cfba036	0.030716043
134	0x3db76a99	0.08955879
135	0x3cdd70c7	0.027031315
136	0x3cb5547f	0.022135017
137	0xbac0eab0	-0.001471838
138	0x3d2e9732	0.04262466
139	0xbd66e8fc	-0.056374535
140	0xbdaf483b	-0.08558699
141	0x3df3f9f4	0.11912909
142	0xbd90ab39	-0.07063908
143	0xbdc632c2	-0.0967765
144	0x3d997c93	0.07494464
145	0xbd0af172	-0.033921666
146	0x3c4fbea9	0.012679734
147	0x3c687fb9	0.014190608
148	0x3a41af75	0.0007388511
149	0xbd80148e	-0.062539205
150	0x3cd08058	0.025451824
151	0xbc06ac9e	-0.008219866
152	0x3d36519f	0.044511434
153	0xbdcfc4bc	-0.10144946
154	0x3db315cb	0.08744391
155	0xbdbfb44d	-0.093605615
156	0xbdb00c95	-0.0859615
157	0x3da2f5e4	0.07957056
158	0xbd7a2ccc	-0.061077878
159	0xbd9d057d	-0.076670624
160	0x3d598d52	0.05311329
161	0xbd937b41	-0.07201243
162	0x3d7ef2ef	0.0622434
163	0x3cac85b7	0.021059854
164	0x3df818d2	0.12114109
165	0x3dac50c3	0.084138416
166	0x3dd266a5	0.10273484
167	0x3d0005e2	0.03125561
168	0x3cad39de	0.021145757
169	0xbd206334	-0.039157107
170	0x3e064f1f	0.1311612
171	0x3d5e85f0	0.05432695
172	0x3d8fe9a5	0.07026986
173	0xbdc63441	-0.096779354
174	0xbd154932	-0.036446758
175	0xbd8e6fe9	-0.06954939
176	0x3b67f89e	0.003539599
177	0x3d21fa9c	0.03954564
178	0xbd09d7e3	-0.03365315
179	0xbc2152b1	-0.009846375
180	0x3d072f46	0.033004068
181	0xbd211aff	-0.039332386
182	0xbc310b32	-0.010805892
183	0x3d3dbe59	0.046324108
184	0xbdbf2a90	-0.0933429
185	0xbdc57bc9	-0.09642751
186	0x3cf9cc4c	0.030492924
187	0xbd281018	-0.041030973
188	0x3d6c3ea9	0.057676945
189	0xbb5078e0	-0.0031810328
190	0x3dcfbe46	0.10143714
191	0x3d88932e	0.06668697
192	0xbd8ca27a	-0.068669274
193	0x3e1e2a9e	0.15445945
194	0xbe8d0295	-0.27541032
195	0x3d96894a	0.073504046
196	0xbdf7c499	-0.12098045
197	0xbe167b24	-0.14695412
198	0x3e37f7ab	0.17965572
199	0xbd1ccc33	-0.038280677
200	0xbdf33fb1	-0.118773825
201	0xbcb151fb	-0.021645537
202	0xbe44ea26	-0.19229946
203	0x3dca631e	0.09882186
204	0x3cd87a66	0.026425552
205	0xbde8d218	-0.11368197
206	0x3e25c384	0.16187865
207	0x3c88e0b3	0.016708707
208	0x3a05b793	0.0005100902
209	0xbdddfe65	-0.108395375
210	0xbdd7c90e	-0.10536395
211	0x3d88c46f	0.06678092
212	0xbe3aa1f1	-0.18225838
213	0xbe076de2	-0.1322551
214	0x3eb685ba	0.356489
215	0x3d1ed7ce	0.038780026
216	0xbd11399c	-0.03545533
217	0xbdd818e6	-0.10551624
218	0x3d59d267	0.05317917
219	0xbca190ab	-0.019722303
220	0xbdec2da9	-0.115321465
221	0x3d9f783f	0.07786607
222	0xbe0bb195	-0.13641961
223	0xbda8a3dc	-0.08234379
224	0x3e49c6a9	0.19704689
225	0xbe240df3	-0.16020946
226	0x3dde01ba	0.10840173
227	0x3dff7541	0.12473536
228	0x3e3c709b	0.1840233
229	0xbd59a453	-0.053135227
230	0x3e10a618	0.1412586
231	0xbc3dc428	-0.011582412
232	0xbcb2728f	-0.021783141
233	0xbde11165	-0.10989646
234	0xbd0ce14b	-0.034394544
235	0xbc52996c	-0.012853961
236	0x3e017d37	0.12645422
237	0xbd4f0a09	-0.05054668
238	0x3dd408ff	0.10353278
239	0xbd194dfa	-0.03742788
240	0xbd467f0b	-0.048461
241	0x3dc84153	0.097780846
242	0x3e062250	0.13099027
243	0x3e0007dc	0.12502998
244	0xbe29a0e0	-0.16565275
245	0xbe0381ed	-0.12842532
246	0x3e8284a8	0.25491834
247	0xbc320bdc	-0.010867085
248	0x3ccdf0aa	0.025139172
249	0xbd086d69	-0.033307467
250	0x3de785e5	0.11304835
251	0x3df6685f	0.12031626
252	0xbb79c940	-0.003811434
253	0x3c3de450	0.0115900785
254	0x3cf5d668	0.030009463
255	0xbb86aaeb	-0.0041097305

fc1.bias f4 [128]
0	0x3d3d988f	0.04628807
1	0xbb86ba0a	-0.004111533
2	0xbde9d326	-0.114172265
3	0x3cda9c3b	0.026685825
4	0xbe2bc59c	-0.167746
5	0xbe033c54	-0.12815982
6	0xbd7ebfbd	-0.062194575
7	0xbd6241b3	-0.055238437
8	0x3c4601b6	0.012085369
9	0xbbe1a474	-0.0068860594
10	0xbd846557	-0.064646415
11	0x3e2dc48a	0.16969505
12	0xbb958d7a	-0.0045639845
13	0xbd6c424b	-0.05768041
14	0xbdd18860	-0.102310896
15	0xbda1ccb4	-0.07900372
16	0xbdf68fe9	-0.120391674
17	0x3a13f19a	0.00056436064
18	0xbd7e2365	-0.062045474
19	0x37ed46bd	2.8285542e-05
20	0xbd652774	-0.05594583
21	0x3da64c0f	0.08119976
22	0xbd505b5e	-0.050868385
23	0xbd68f67f	-0.056875702
24	0xbd90bc1a	-0.070671275
25	0xbd734377	-0.05939051
26	0xbddb5d47	-0.107111506
27	0xbdf28c9d	-0.11843226
28	0x3cca48a8	0.024692848
29	0xbd6bc75e	-0.05756318
30	0xbc9fe813	-0.019519841
31	0xbd848c6a	-0.06472094
32	0xbdc92d6c	-0.09823117
33	0xbd8ed820	-0.06974816
34	0xbcd22d95	-0.0256565
35	0xbdc159f5	-0.09440986
36	0xbdb3524b	-0.087559305
37	0xbd733344	-0.059375063
38	0x3d0e00d9	0.034668777
39	0xbd2d162b	-0.04225747
40	0xba29c576	-0.00064762624
41	0xbc379b84	-0.011206511
42	0xbe0591e3	-0.13043933
43	0xbd586e73	-0.052839708
44	0xbd4b86d3	-0.049689125
45	0x3c6bc8f6	0.014391175
46	0x3ce71550	0.028208405
47	0x3cf5dcca	0.030012507
48	0x3c375984	0.011190776
49	0xbc937595	-0.018000403
50	0xbbafd1f4	-0.0053656045
51	0xbd2fd1d0	-0.042924702
52	0xbbf6eb92	-0.0075354064
53	0xbbc537d3	-0.0060186177
54	0x3e147c31	0.145005
55	0xbd10237e	-0.035190098
56	0x3bc1e155	0.0059167542
57	0xbda5503b	-0.08071943
58	0xbc2477b4	-0.010038305
59	0xbdf6521e	-0.12027381
60	0xbdde163e	-0.10844086
61	0x3c3b90eb	0.011448125
62	0xbd6eb960	-0.058282256
63	0xbdcac405	-0.09900669
64	0x3cff73eb	0.031183204
65	0xbcdba35b	-0.026811292
66	0xbe038bc4	-0.12846285
67	0xbcb1a319	-0.021684216
68	0x3cbd9961	0.023144426
69	0xbd91d84c	-0.071213335
70	0xbcbbfdd9	-0.022948192
71	0xbcc1e3af	-0.023668138
72	0xbdcdf7f5	-0.1005706
73	0x3cbac0b2	0.022796962
74	0xbdc90e60	-0.09817195
75	0x3abd65a9	0.0014449853
76	0x3cdc3e81	0.026885273
77	0x3c3d5578	0.011556022
78	0xbc2822ca	-0.010262201
79	0x3cb59afd	0.02216863
80	0xbdca0dd8	-0.09865922
81	0x3b959a19	0.004565489
82	0xbdacfff1	-0.084472544
83	0x3deb753c	0.1149697
84	0xbd0e161f	-0.034689065
85	0xbd2886c6	-0.041144155
86	0xbc069d8f	-0.008216276
87	0xbdbfaca0	-0.093590975
88	0x3cdcb104	0.026939876
89	0xbd8a045d	-0.067391135
90	0xbca47c99	-0.020078944
91	0xbd7bde82	-0.061491497
92	0x3c3d9397	0.011570833
93	0xbd3c7ebb	-0.046019297
94	0xbdac8224	-0.0842326
95	0x3da0347a	0.07822509
96	0x3a98615d	0.0011625696
97	0xbd5cb9bd	-0.05388807
98	0xbde03761	-0.10948063
99	0xbc960778	-0.018314108
100	0x3cd49ea5	0.025954554
101	0x3b9506b5	0.0045479187
102	0xbdd8bcaa	-0.1058286
103	0xbdf3955e	-0.11893724
104	0xbc434f03	-0.011920693
105	0x3bbc3530	0.005743645
106	0x3ca25ea6	0.019820523
107	0x3d8c9aa5	0.068654336
108	0x3d87e0f4	0.06634703
109	0xbddd0e34	-0.10793725
110	0xbbb9253d	-0.005650191
111	0xbe124c57	-0.14286934
112	0xbde12b64	-0.10994604
113	0x3d293ede	0.04131972
114	0x3d9c4896	0.07631032
115	0xbd96734c	-0.0734621
116	0xbcd922f7	-0.02650593
117	0xbd000010	-0.03125006
118	0xbd536ef0	-0.05161947
119	0xbdce1dbf	-0.10064267
120	0xbc87e78f	-0.016589908
121	0xbd3983aa	-0.04529158
122	0xbd0ecf2f	-0.034865554
123	0x39b3c29d	0.0003428654
124	0x3d55fed6	0.052244984
125	0x3b8861cb	0.0041620485
126	0x3cf6e396	0.030137818
127	0x3ce7ff71	0.028320046

fc2.weight f4 [64, 128]
0	0x3f310b74	0.691581
1	0x3e0ecfeb	0.13946502
2	0xbd19e11d	-0.0375682
3	0xbf03cb32	-0.51481926
4	0xbb3942e3	-0.0028268627
5	0xbe772ce0	-0.24138212
6	0x3ed10c9b	0.4082993
7	0xbeedeb42	-0.4646855
8	0x3ec3ce98	0.38243556
9	0x3b23194d	0.0024886907
10	0xbd837db4	-0.0642046
11	0x3d967cc8	0.07348019
12	0x3d1ee88a	0.038795985
13	0xbd740bbd	-0.059581507
14	0x3cf508b2	0.029911373
15	0xbd75c06a	-0.059997953
16	0xbd7d531c	-0.061846837
17	0x3a206b44	0.00061194994
18	0x3ea515c2	0.32243162
19	0x3eed354f	0.46329734
20	0xbdb28867	-0.08717423
21	0xbedea68c	-0.4348644
22	0xbd77f272	-0.06053395
23	0x3e19a646	0.15004835
24	0xbb411304	-0.0029460797
25	0x3cac3d90	0.021025449
26	0xbd862b4c	-0.06551227
27	0x3ea12ece	0.31481022
28	0xbe0d2a97	-0.13785778
29	0x3c39fbc0	0.011351526
30	0x3d89f12d	0.06735454
31	0x3f2fe170	0.68703365
32	0xbd856bf5	-0.06514732
33	0x3e285b7a	0.16441146
34	0xbe273c54	-0.16331607
35	0x3b953292	0.0045531476
36	0x3d334593	0.043767523
37	0x3e9054e4	0.28189766
38	0x3e00e884	0.12588698
39	0x3df46714	0.11933723
40	0x3eb5727b	0.35438904
41	0x3db36b90	0.0876075
42	0xbcc5d01d	-0.024147088
43	0x3d9e76ce	0.07737504
44	0x3e9bfe28	0.30467343
45	0x3f194557	0.5987143
46	0x3c984dbc	0.018591754
47	0x3f03f0db	0.5153939
48	0x3ec74ba5	0.389249
49	0xbd98a833	-0.074539565
50	0xbddd023a	-0.1079144
51	0x3cf1d548	0.029520646
52	0xbddd6278	-0.10809797
53	0xbd8e8487	-0.06958871
54	0xbf22af7a	-0.63549006
55	0x3e895a45	0.26826683
56	0x3eb58f0f	0.35460708
57	0xbe7f07de	-0.24905345
58	0xbde5269f	-0.11189007
59	0xbd1340cd	-0.03595047
60	0xb8a09c00	-7.658452e-05
61	0x3e007848	0.12545884
62	0xbc4c9c51	-0.012488441
63	0x3de6de9a	0.11272927
64	0xbe5817c9	-0.21102823
65	0x3cc790a4	0.024360962
66	0x3e72301a	0.23651162
67	0xbdae1719	-0.08500499
68	0xbe68f486	-0.22749528
69	0xbdb01918	-0.08598536
70	0x3d80da3f	0.06291627
71	0xbd7edf7b	-0.062224846
72	0x3e1e3e18	0.15453374
73	0x3e1868a0	0.14883661
74	0x3c5577a8	0.013029017
75	0xbd7dcd59	-0.061963413
76	0xbdb49797	-0.08817976
77	0x3e8b0a8b	0.2715648
78	0x3e690592	0.22756031
79	0xbea17960	-0.31537914
80	0xbc06ff21	-0.008239538
81	0x3de4455e	0.11146043
82	0xbdaf119a	-0.08548279
83	0xbf135ca8	-0.5756326
84	0xbf0ee537	-0.55818504
85	0x3d081e22	0.033231862
86	0x3cd1c454	0.025606312
87	0x3f27c28f	0.6553125
88	0xbdc58c6a	-0.096459225
89	0xbd4623cc	-0.048373982
90	0x3e5b7a4d	0.21433373
91	0x3d348e79	0.044081185
92	0x3f0a9da4	0.5414679
93	0xbceef66e	-0.029170241
94	0x3d486d41	0.048932318
95	0xbe0476b3	-0.12935905
96	0xbf17f7aa	-0.5936228
97	0xbd9270ba	-0.07150407
98	0xbe7add63	-0.24498515
99	0x3e1737f7	0.14767443
100	0x3e83d811	0.25750783
101	0x3de08f97	0.109648876
102	0xbe0624cb	-0.13099973
103	0xbcd57fd6	-0.026061933
104	0x3c8f91f4	0.01752565
105	0xbcfb77da	-0.030696798
106	0x3eb4f1ec	0.35340822
107	0xbdb9c21f	-0.09070229
108	0xbe76690d	-0.24063511
109	0xbd991670	-0.07474983
110	0xbda55064	-0.08071974
111	0xbe431cdd	-0.19053979
112	0xbd2fd7f7	-0.04293057
113	0xbf2dad33	-0.67842406
114	0xbf0da2aa	-0.5532633
115	0x3d223ca8	0.039608628
116	0x3f163cf8	0.5868678
117	0x3d29dce3	0.04147042
118	0xbd36ff10	-0.04467684
119	0xbd634519	-0.05548582
120	0x3ea41d8e	0.32053798
121	0x3e7854c2	0.24251083
122	0xbda6930e	-0.08133517
123	0x3ed0c20e	0.40773052
124	0x3d2a87f2	0.041633554
125	0x3e8d2ec1	0.27574733
126	0xbdf7d105	-0.12100414
127	0x3d81ec47	0.063438945
128	0xbd937481	-0.07199956
129	0x3d8e28eb	0.06941398
130	0x3d226f1f	0.039656755
131	0x3e526421	0.20546009
132	0x3df1d18f	0.11807548
133	0x3d391c61	0.04519308
134	0x3e83d087	0.2574503
135	0x3cd67f31	0.026183696
136	0xbc807e5d	-0.015685255
137	0x3edc2bac	0.4300207
138	0x3cfe280c	0.031024955
139	0x3e083507	0.13301478
140	0x3ef869c5	0.48518196
141	0xbd39eb3d	-0.045390356
142	0xba78df83	-0.0009493755
143	0xbc159b40	-0.009131253
144	0xbcb3fcc5	-0.021971116
145	0x3d9eae95	0.07748143
146	0xbde12260	-0.10992885
147	0xbd56cd8e	-0.052442126
148	0x3d00d29a	0.031450845
149	0x3ebf688f	0.3738446
150	0xbcc40d78	-0.023932204
151	0x3c94a96d	0.018147195
152	0x3d41c909	0.047310863
153	0x3e4cd5f8	0.20003498
154	0x3cbc6ae9	0.023000197
155	0x3f635058	0.8879447
156	0x3e425fc7	0.18981849
157	0x3c8b14dc	0.01697772
158	0x3e12e705	0.1434594
159	0x3d5a55b5	0.053304393
160	0xbd5689d3	-0.052377533
161	0xbeb1a07c	-0.34692752
162	0x3e80dcca	0.2516845
163	0x3d0a2597	0.033727255
164	0xbc4d7a40	-0.012541354
165	0xbd3e8a41	-0.046518568
166	0xbf12db10	-0.5736551
167	0xbe908b01	-0.28231052
168	0xbe58971e	-0.21151397
169	0x3d11949e	0.035542123
170	0xbea156fa	-0.3151167
171	0x3e178f8b	0.14800851
172	0xbd58b27d	-0.052904595
173	0xbe3b119b	-0.18268435
174	0x3c8b99e6	0.017041158
175	0xbedea45e	-0.43484777
176	0xbf195447	-0.5989422
177	0x3d30c7ab	0.04315917
178	0x3f1c1dab	0.6098277
179	0x3d49dd48	0.049283296
180	0x3ed25b13	0.4108511
181	0x3eeb3664	0.45939934
182	0x3e0a4236	0.1350182
183	0xbef95560	-0.48697948
184	0xbe2ee191	-0.17078234
185	0xbdc2df9c	-0.09515306
186	0xbe8bbb15	-0.2729117
187	0x3d8cf005	0.068817176
188	0x3d8c1331	0.06839598
189	0x3c778241	0.015106739
190	0x3cb01cd1	0.021498116
191	0x3dabc9c0	0.0838809
192	0xbe690f82	-0.22759822
193	0x3d53cc5f	0.051708575
194	0x3e29e155	0.16589864
195	0xbdb847a9	-0.08998043
196	0x3f633a86	0.88761175
197	0xbcf3c090	-0.029754907
198	0x3d8d5de7	0.06902676
199	0x3e68d52e	0.22737572
200	0xbbcde8db	-0.006283862
201	0xbef52a6a	-0.47883922
202	0x3d94e899	0.07270927
203	0x3ed9a9d9	0.42512396
204	0x3eaa8462	0.33304125
205	0xbe13ae9b	-0.14422075
206	0xbe16c982	-0.14725307
207	0x3e584c7e	0.2112293
208	0x3f246913	0.6422283
209	0x3e93b9a2	0.28852564
210	0x3cd8c138	0.026459321
211	0x3e0d5a2e	0.13803932
212	0x3e35c507	0.17750941
213	0xbc586758	-0.013208233
214	0x3cf7b8fe	0.030239578
215	0xbdae26bf	-0.08503484
216	0x3e03e2cf	0.1287949
217	0xbd7a6f56	-0.061141334
218	0xbd3834a3	-0.044972073
219	0x3c9e914b	0.01935639
220	0xbde0b157	-0.10971325
221	0x3c2900b6	0.010315111
222	0x3e3f2ec4	0.18670183
223	0xbe70a848	-0.23501694
224	0x3efbc257	0.49171707
225	0x3e899a2f	0.26875445
226	0x3e3f7aac	0.1869914
227	0xbed31ffc	-0.4123534
228	0xbec019bb	-0.3751963
229	0x3eefc950	0.46833277
230	0x3ed2356a	0.41056377
231	0x3c7c6a60	0.015406221
232	0x3c4a1ea0	0.012336403
233	0x3df7a522	0.120920435
234	0xbf113308	-0.5671849
235	0xbe31df1d	-0.17370267
236	0x3e51ca8f	0.20487426
237	0xbd0479ca	-0.03234271
238	0x3ece026b	0.4023622
239	0xbd1eb2ae	-0.03874462
240	0xbd8fd142	-0.07022335
241	0x3e4e43a3	0.20142989
242	0x3ef7a361	0.48366836
243	0x3f1fe406	0.6245731
244	0xbe9accdc	-0.3023442
245	0x3d49ce02	0.04926873
246	0x3d843c99	0.064568706
247	0xbd2f9dfb	-0.04287527
248	0x3e3f6ec7	0.18694602
249	0xbf20427f	-0.62601465
250	0x3df1c761	0.11805607
251	0xbddfac59	-0.109215446
252	0xbe2a7f8e	-0.16650221
253	0xbeac993a	-0.33710653
254	0x3ede4e24	0.43418992
255	0x3e8ba937	0.27277538

fc2.bias f4 [64]
0	0x3d11c6be	0.035589926
1	0x3d35e829	0.04441086
2	0x3d32d950	0.043664277
3	0x3dc8209b	0.09771844
4	0x3e14a263	0.1451507
5	0x3d39da58	0.045374244
6	0x3d90d55c	0.07071945
7	0x3c6e72c8	0.014553733
8	0x3db9bc80	0.09069157
9	0x3de04ccf	0.1095215
10	0x3d5daf49	0.054122243
11	0x3ceb0e10	0.028693229
12	0xbc24d060	-0.010059446
13	0xbb5a4222	-0.0033303578
14	0x3daf180b	0.08549508
15	0x3d99e31c	0.07514021
16	0x3d9eddbc	0.07757136
17	0x3de94aca	0.11391218
18	0x3d745893	0.059654783
19	0x3da8c3d8	0.08240479
20	0x3dfb2a49	0.12263925
21	0x3d79de08	0.06100276
22	0x3c9ab786	0.018886339
23	0x3da85700	0.08219719
24	0x3de79a66	0.11308746
25	0x3b0ccce6	0.0021484434
26	0xbd1eab03	-0.03873731
27	0x3d6e0355	0.058108646
28	0x3b8e238e	0.0043377345
29	0x3de55841	0.11198474
30	0x3e1180c3	0.14209275
31	0x3deba02a	0.11505158
32	0x3d0191f2	0.031633325
33	0x3cec9a77	0.028882248
34	0x3dfaa6af	0.122388236
35	0x3c691c19	0.01422789
36	0x3dc8d980	0.0980711
37	0x3df48614	0.11939636
38	0x3cc08db8	0.023505077
39	0x3d1222e3	0.0356778
40	0x3d30f865	0.043205637
41	0x3ded51d1	0.11587871
42	0x3d1b4a4c	0.037912652
43	0x3db9323a	0.09042783
44	0x3d618d60	0.055066466
45	0x3d156f72	0.036483236
46	0x3d3d7d0f	0.046261843
47	0xbc17305d	-0.009227839
48	0x3de50275	0.11182109
49	0x3d380907	0.044930484
50	0x3d2be58e	0.041966967
51	0x3e28d76a	0.16488424
52	0x3c993837	0.018703563
53	0x3c081693	0.008306163
54	0x3b8419a1	0.0040313755
55	0xbc930b04	-0.017949589
56	0x3ced77ab	0.028987726
57	0x3ccdac97	0.025106711
58	0x3dbf8c8b	0.09352978
59	0x3e5e1252	0.21686676
60	0xbaa29f3d	-0.0012407076
61	0x3da52454	0.0806357
62	0xb80a6c95	-3.300289e-05
63	0x3d4b1097	0.04957637

fc3.weight f4 [64, 64]
0	0x3e27c86b	0.16385047
1	0xbea3dab7	-0.32002804
2	0xbe3ce734	-0.18447572
3	0xbd023546	-0.031789087
4	0x3e2c6268	0.16834414
5	0xbe3ad1a2	-0.18244031
6	0x3f02063c	0.5079076
7	0x3c9f2a09	0.019429224
8	0x3f339576	0.70149934
9	0x3dd88590	0.1057235
10	0x3f378d0c	0.71699595
11	0x3f0a2ef6	0.53977907
12	0x3e49a701	0.19692613
13	0xbcf8edf4	-0.030386902
14	0x3cd13487	0.025537742
15	0x3e9d2050	0.30688715
16	0xbe353095	-0.17694314
17	0xbdac2a77	-0.08406537
18	0xbe4fb9d8	-0.20285738
19	0xbd40dd03	-0.047085773
20	0xbe8207fd	-0.2539672
21	0xbd16ace7	-0.036785986
22	0x3f0c997a	0.54921687
23	0x3f0e5b9e	0.55608547
24	0xbe00419f	-0.12525032
25	0x3cda47b4	0.026645519
26	0xbeced70c	-0.40398443
27	0xbe390f5f	-0.1807227
28	0xbe5d3f1f	-0.2160611
29	0xbe625bc3	-0.22105317
30	0x3ebd0255	0.36915842
31	0xbe8c26f2	-0.27373463
32	0x3b975b32	0.0046190256
33	0xbda901ec	-0.0825232
34	0x3f1b5bd0	0.6068697
35	0xbd56bc75	-0.05242582
36	0xbe14f542	-0.14546683
37	0x3e915983	0.28388605
38	0xbad9f52c	-0.0016628853
39	0x3de8b1df	0.11362051
40	0x3dc93070	0.09823692
41	0xbe6db844	-0.23214823
42	0xbe09d648	-0.13460648
43	0x3f0c8725	0.54893714
44	0xbe15d139	-0.14630593
45	0xbea06670	-0.31328154
46	0x3c349e33	0.011024046
47	0x3cd7481a	0.026279498
48	0xbe29ea26	-0.16593227
49	0x3e48bdf4	0.19603711
50	0x3e9fa203	0.31178293
51	0x3ecc9acd	0.39961854
52	0x3f0399ec	0.5140674
53	0xbbeae09d	-0.0071678893
54	0x3e32232a	0.17396227
55	0x3e659181	0.22418787
56	0xbe2d6b88	-0.16935551
57	0xbe10c36a	-0.14137045
58	0x3e93a5a0	0.288373
59	0x3f09b0c5	0.53785354
60	0xbdfb9569	-0.12284357
61	0x3e8e4b0f	0.2779164
62	0xbdc87763	-0.09788396
63	0x3f19d63a	0.6009251
64	0x3dc62d39	0.09676594
65	0x3ecab1c0	0.39588737
66	0x3ddbf38d	0.10739813
67	0x3ed4fa5a	0.41597253
68	0xbe1b9907	-0.15195094
69	0x3ec90cfe	0.39267725
70	0xbda387f0	-0.079849124
71	0x3ec4a97d	0.3841056
72	0xbdbd793c	-0.09251639
73	0xbe18aaa5	-0.14908846
74	0x3d057925	0.032586236
75	0x3cbdf377	0.023187382
76	0x3d87c831	0.0662998
77	0x3f2ec785	0.6827319
78	0xbde81d91	-0.11333764
79	0xbe889f99	-0.26684263
80	0x3f1e533c	0.61845756
81	0x3f013ab6	0.5048021
82	0xbe1159ba	-0.14194384
83	0x3f177a96	0.59171426
84	0x3ec155c1	0.37760738
85	0x3ed40ee0	0.414176
86	0xbd5e7e5c	-0.054319724
87	0xbe98df29	-0.29857758
88	0x3e43356c	0.19063348
89	0xbb3666a0	-0.0027832165
90	0x3f28f74d	0.6600235
91	0xbe278352	-0.16358688
92	0x3edd1d37	0.43186352
93	0x3ec44322	0.38332468
94	0xbd5637c9	-0.052299295
95	0x3f1372cb	0.57597035
96	0xbd85b173	-0.065279864
97	0x3ea50a38	0.3223436
98	0xbf2b05bd	-0.6680563
99	0x3f11e389	0.56987816
100	0x3ed6d5e5	0.41960064
101	0xbe852bb9	-0.2600992
102	0x3c51d911	0.0128081
103	0xbc8bbdb6	-0.017058235
104	0x3eb237ac	0.348081
105	0x3e236336	0.15955815
106	0x3e8ab1ff	0.27088925
107	0xbec389b9	-0.38191012
108	0x3edae4fb	0.42752823
109	0xbd37e83a	-0.044899203
110	0x3d81e339	0.063421674
111	0x3f01332e	0.5046872
112	0x3f25c8d3	0.6475956
113	0xbe034838	-0.12820518
114	0x3ea45c86	0.3210184
115	0xbe927f4a	-0.2861274
116	0xbdab29fa	-0.08357616
117	0x3e95d0dc	0.2926091
118	0x3d5a752c	0.0533344
119	0xbd7f27b5	-0.062293727
120	0xbe671dfc	-0.22570032
121	0x3eb70345	0.35744682
122	0xbe1d8d20	-0.15385866
123	0xbea92ae5	-0.33040538
124	0x3e908d89	0.28232983
125	0xbe0b1b44	-0.1358462
126	0x3f828064	1.0195432
127	0x3d51d8c2	0.051232107
128	0x3cb82dab	0.022482714
129	0xbead7fad	-0.3388647
130	0x3e4a2868	0.19741976
131	0x3d966631	0.0734371
132	0xbe7bf634	-0.24605638
133	0xbe7154d5	-0.23567517
134	0xbb9c1705	-0.0047634863
135	0x3e26fb0f	0.16306709
136	0x3e079524	0.13240486
137	0xbeb0fd35	-0.34568182
138	0x3d1e7662	0.038687117
139	0x3cd39cd9	0.025831627
140	0xbdab03e8	-0.083503544
141	0x3ee2948d	0.4425396
142	0xbd8a7283	-0.067601226
143	0x3dc9764f	0.09837019
144	0x3ea35887	0.31903479
145	0x3ea67baf	0.32516238
146	0xbf2b5d17	-0.6693892
147	0x3e671fbb	0.22570698
148	0xbd2d4d6c	-0.042310163
149	0x3e738cdd	0.23784204
150	0x3d040bcf	0.032237824
151	0xbe3e9663	-0.18612055
152	0x3e239ec1	0.15978529
153	0xbe2aee0e	-0.16692373
154	0x3ea6c391	0.3257108
155	0xbeb89041	-0.36047557
156	0x3e02d33e	0.12775895
157	0x3de12d0f	0.10994922
158	0x392deede	0.0001658755
159	0x3e4eae69	0.2018372
160	0x3ddb11be	0.106967434
161	0x3d271b4d	0.04079752
162	0xbee2fc9c	-0.4433335
163	0x3eb91b8f	0.36153838
164	0x3c2cf71c	0.010556962
165	0xbe097c55	-0.13426335
166	0x3d9473ab	0.072486244
167	0xbd87825f	-0.06616663
168	0x3f2902eb	0.6602008
169	0xbba2513b	-0.004953531
170	0x3ea6a0ca	0.32544547
171	0xbe91b654	-0.28459418
172	0xbdbaa1a7	-0.09112864
173	0xbed1daf7	-0.4098737
174	0xbe93c066	-0.28857726
175	0x3ed62ad8	0.41829562
176	0x3e814e25	0.25254932
177	0x3e80fd66	0.25193328
178	0x3f051dcb	0.51998585
179	0xbe5900e4	-0.21191746
180	0xbd73de0a	-0.059537925
181	0x3f1e2793	0.61779135
182	0xbddbdd1c	-0.10735533
183	0xbe10e124	-0.14148384
184	0xbf2482c2	-0.6426202
185	0xbd3c9267	-0.046038058
186	0xbe9f037e	-0.31057352
187	0x3df66005	0.12030033
188	0x3edfec8b	0.43735155
189	0x3e2bd24a	0.16779438
190	0x3ed4395b	0.4145001
191	0x3e0dafcc	0.13836592
192	0xbd02fc69	-0.031979
193	0xbf15c54d	-0.5850418
194	0xbe59e5b1	-0.21279027
195	0xbe8fecc8	-0.28110337
196	0x3e7077a0	0.23483133
197	0xbf21a6a1	-0.6314488
198	0x3df624b9	0.12018723
199	0xbf04d1c1	-0.5188256
200	0x3ce18633	0.027529811
201	0x3eb08fd5	0.34484735
202	0x3defee19	0.117153354
203	0x3d45a512	0.048253126
204	0xbe4b8f85	-0.19878967
205	0xbefd7e33	-0.49510345
206	0x3e4ae514	0.19813949
207	0x3de45622	0.11149241
208	0xbf169829	-0.5882593
209	0xbf1a3687	-0.6023945
210	0x3ea050fe	0.31311792
211	0xbf38c963	-0.7218229
212	0xbedd0392	-0.43166786
213	0xbf483ba8	-0.7821603
214	0x3d8772c7	0.06613689
215	0x3e6ba10f	0.23010658
216	0xbe047c88	-0.1293813
217	0xbdf70083	-0.120606445
218	0xbf5dbb1a	-0.8661362
219	0x3e4ece1b	0.2019581
220	0xbf6ae5c9	-0.91756874
221	0xbe8d05b2	-0.27543408
222	0x3e1947bd	0.14968772
223	0xbf02060e	-0.5079049
224	0xbe35897b	-0.17728226
225	0xbf102189	-0.5630117
226	0x3f08a8de	0.5338267
227	0xbf3f6ea0	-0.74778175
228	0xbef0df54	-0.47045386
229	0x3e53fcda	0.20701924
230	0xbdd3fa89	-0.1035052
231	0xbd8c0aef	-0.06838023
232	0xbd11dd20	-0.03561127
233	0xbe57d07c	-0.21075624
234	0xbf0a350f	-0.5398721
235	0x3efe2dee	0.49644417
236	0xbf88eb76	-1.0696857
237	0xbd9a24f2	-0.07526578
238	0xbe6d9883	-0.2320271
239	0xbf14d8c5	-0.58143264
240	0xbf25e0b4	-0.64795995
241	0x3ca09506	0.01960231
242	0xbe57d739	-0.21078195
243	0x3e161cdf	0.14659451
244	0x3db15aa9	0.0865987
245	0xbcb087b2	-0.02154908
246	0xbcdc31cd	-0.026879216
247	0xb98e8e22	-0.00027190248
248	0x3e9f7cf5	0.31150022
249	0xbf8e1088	-1.1098795
250	0x3cf6393e	0.030056592
251	0x3e83ee44	0.2576772
252	0xbecdef0d	-0.40221444
253	0xbd9148a4	-0.07093933
254	0xbf49208c	-0.7856529
255	0xbdd505ed	-0.10401521

fc3.bias f4 [64]
0	0xbcb2063c	-0.021731488
1	0xbe06bfd8	-0.1315912
2	0x3e010466	0.12599334
3	0x3e5cf3c5	0.21577366
4	0xbdcc3b47	-0.09972244
5	0xbd5c120a	-0.05372814
6	0xbdc155d0	-0.094401956
7	0x3e151b18	0.14561117
8	0x3cf69842	0.030101899
9	0xbced029a	-0.028931905
10	0x3dbcea83	0.09224417
11	0x3dae7a41	0.08519412
12	0xbe45d8f8	-0.19321048
13	0x3d9b3edf	0.07580351
14	0x3d5a5ccf	0.053311165
15	0x3dd8a979	0.10579199
16	0xbd42ccc6	-0.04755857
17	0xbd86ac04	-0.06575778
18	0xbdbbd7ec	-0.09172043
19	0x3c77ba01	0.01512003
20	0xbe0003e4	-0.12501484
21	0x3df36036	0.11883585
22	0xbd0e0592	-0.03467328
23	0xbdaa5de7	-0.08318692
24	0xbd7ad55f	-0.061238643
25	0x3e1e9e30	0.15490031
26	0x3d8901cf	0.06689798
27	0xbdabde24	-0.08391979
28	0xbd4db37a	-0.05021999
29	0x3e0827ba	0.13296404
30	0x3d933429	0.07187683
31	0xbb26a42b	-0.0025427442
32	0xbd7d8e14	-0.061903074
33	0x3d54a272	0.051912732
34	0xbdb7403a	-0.08947797
35	0x3ce43019	0.027854966
36	0x3c88ab6b	0.016683301
37	0xbe53f00c	-0.2069704
38	0x3d81e22b	0.06341966
39	0x3d0dca10	0.03461653
40	0xbb8de6b2	-0.0043304795
41	0x3e1245b1	0.14284398
42	0x3dde5596	0.10856168
43	0x3c50d948	0.012747116
44	0xbd2fe081	-0.042938713
45	0xbe233c79	-0.15941037
46	0x3dc88c2b	0.0979236
47	0xbd4e70ac	-0.05040042
48	0xbdfefb07	-0.124502234
49	0x3d9e01e2	0.07715203
50	0x3d4dbaeb	0.050227087
51	0x3c3bd791	0.011464969
52	0x3db80d31	0.08986891
53	0xbe0374aa	-0.12837473
54	0xbdfacbc9	-0.122459
55	0x3de22ad4	0.11043325
56	0x3ddaf4ac	0.10691199
57	0x3d950e66	0.07278137
58	0x3dd2dc05	0.10295872
59	0xbe43a4b7	-0.19105802
60	0x3dab8640	0.083752155
61	0xbd57231b	-0.052523714
62	0xbde70a1c	-0.11281225
63	0xbd3d6f5a	-0.04624877

fc4.weight f4 [5, 64]
0	0x3d6f2216	0.058382116
1	0x3e1e3303	0.15449147
2	0xbc734382	-0.014847638
3	0xbeaf10b9	-0.34192446
4	0x3dfa3111	0.1221639
5	0x3e6a31d8	0.22870576
6	0xbd7ea048	-0.062164575
7	0xbed7ec6b	-0.4217256
8	0x3eb6c96c	0.35700548
9	0xbe915cea	-0.283912
10	0xbe0c4615	-0.13698609
11	0x3d8179e2	0.063220754
12	0x3d473ca9	0.048641834
13	0xbda5e762	-0.081007734
14	0x3f0cd525	0.5501273
15	0x3ce2d979	0.02769159
16	0x3e328078	0.1743182
17	0x3ec0b253	0.3763605
18	0x3e71676a	0.23574606
19	0xbe8fb6c1	-0.28069118
20	0x3e467328	0.19379866
21	0xbe1060a0	-0.1409936
22	0x3dcc39b4	0.099719435
23	0x3e1968d1	0.1498139
24	0xbe17bf44	-0.14819056
25	0xbe0ff44c	-0.14058036
26	0xbe198675	-0.14992698
27	0x3e233871	0.159395
28	0x3e1bf248	0.15229142
29	0xbec5fe73	-0.38670692
30	0xbe08a11a	-0.13342705
31	0xbd9f6d54	-0.077845246
32	0x3e9f3994	0.31098616
33	0xbec9d6bd	-0.39421645
34	0x3e69696c	0.22794122
35	0xbe3bec3d	-0.18351837
36	0x3d3ec95f	0.04657876
37	0x3e4bc60c	0.19899768
38	0x3e3557a8	0.1770922
39	0x3db85e0d	0.09002314
40	0x3e99548f	0.29947326
41	0xbf3dffbb	-0.7421834
42	0xbe77eea6	-0.24212131
43	0xbec9eb6f	-0.39437434
44	0xbec06e41	-0.37584117
45	0x3e8083c9	0.25100544
46	0xbdcbb868	-0.09947282
47	0x3eabd685	0.33562103
48	0x3ec75994	0.3893553
49	0x3eaf35ae	0.34220642
50	0x3e7930b9	0.24334992
51	0x3e4dd34e	0.20100138
52	0x3e841d43	0.25803575
53	0x3f06329f	0.5242099
54	0xbdcff70b	-0.101545416
55	0xbf1b54ea	-0.60676444
56	0xbe8dbfb5	-0.27685323
57	0xbe82b86b	-0.25531325
58	0x3e9bf01a	0.3045662
59	0x3eb3e5ec	0.35136354
60	0xbee63cf1	-0.4496837
61	0xbd224632	-0.039617725
62	0x3dc4bc13	0.09606185
63	0x3e173537	0.14766394
64	0x3e23104e	0.15924188
65	0xbd5ba153	-0.053620648
66	0xbdeaa2f4	-0.11456862
67	0x3e5066ac	0.20351666
68	0x3e74d741	0.23910238
69	0xbea0bb51	-0.3139291
70	0x3e1474bd	0.14497657
71	0x3e5fb6c8	0.2184707
72	0xbf94d507	-1.1627511
73	0x3e2938d1	0.1652558
74	0xbe59a041	-0.21252538
75	0xbdf1b59c	-0.11802217
76	0xbe57dccf	-0.21080326
77	0xbe9c1fb5	-0.3049294
78	0xbf9fe75f	-1.2492484
79	0xbed6b1ef	-0.41932628
80	0x3d96bafe	0.07359885
81	0xbe94e250	-0.29078913
82	0x3eb67f15	0.3564383
83	0xbe85c08c	-0.26123464
84	0xbdcf50f9	-0.10122866
85	0x3ddb8924	0.10719517
86	0xbe9dacc8	-0.30795884
87	0x3e1e4e49	0.15459551
88	0xbe94abb8	-0.2903726
89	0xbdf4897b	-0.11940285
90	0x3f0bfc03	0.54681414
91	0x3e13ade8	0.14421809
92	0x3e93f403	0.28897104
93	0xbe486c28	-0.19572508
94	0x3efdc7fa	0.49566633
95	0x3a351be9	0.0006908761
96	0xbf40c842	-0.7530557
97	0x3fb8e5d2	1.4445136
98	0x3e8bf608	0.27336144
99	0x3d153e52	0.036436386
100	0x3e6756ba	0.22591677
101	0x3ea82183	0.32838067
102	0x3e4b69de	0.19864604
103	0x3e421ce7	0.18956338
104	0xbe2e5204	-0.17023474
105	0x3f7540ce	0.9580201
106	0xbd50ade6	-0.050947092
107	0x3ffb5704	1.963593
108	0x3f9909a8	1.1956072
109	0xbebb4288	-0.36574197
110	0x3ec2309a	0.37927705
111	0x3e2c11dc	0.16803688
112	0xbf22e912	-0.6363689
113	0xbf3290a7	-0.6975197
114	0xbf823eea	-1.017545
115	0xbe9e3592	-0.30900246
116	0xbe909631	-0.28239587
117	0xbf86e48e	-1.0538499
118	0xbce02202	-0.027359966
119	0x3e8ba879	0.27276972
120	0x3ebe6115	0.37183443
121	0x3e26c418	0.16285741
122	0xbe6a03c0	-0.22852993
123	0xbcc4fc03	-0.02404595
124	0x3e80fe8a	0.25194198
125	0x3e3a0c8e	0.18168852
126	0xbf1f83a9	-0.6231027
127	0x3dea015e	0.11426042
128	0x3e4a85e1	0.19777633
129	0xbf33ee7d	-0.7028578
130	0xbf31f4c6	-0.6951412
131	0x3f641450	0.89093494
132	0xbf4f5017	-0.8098158
133	0x3ec07c62	0.37594897
134	0xbe11655a	-0.14198819
135	0x3f902c20	1.1263466
136	0x3e413a08	0.18869793
137	0x3fba0f25	1.4535872
138	0x3ee727b4	0.4514748
139	0x3e69b8c9	0.22824396
140	0xbe837023	-0.2567149
141	0x3ed69bcc	0.4191574
142	0xbe2c5ee7	-0.16833077
143	0x3b1c3167	0.0023833157
144	0x3da29414	0.079384
145	0xbc5c2893	-0.013437408
146	0xbd1f5e50	-0.038908303
147	0x3e2b78f2	0.16745356
148	0x3e61ab59	0.2203802
149	0xbf08bb58	-0.53410864
150	0x3ea0bbde	0.3139333
151	0xbf1c872a	-0.61143744
152	0x3cebd2a6	0.028786968
153	0xbe0bc5fa	-0.13649741
154	0xbec7bfc8	-0.39013505
155	0xbf43e796	-0.7652525
156	0x3e2c0b3a	0.16801158
157	0x3f596705	0.8492282
158	0x3d8800be	0.066407666
159	0xbe130242	-0.1435633
160	0xbf1a53f1	-0.60284334
161	0x3ea4ebf5	0.3221127
162	0xbcea22dd	-0.028581077
163	0x3f02a493	0.5103237
164	0x3e3ddca4	0.18541199
165	0xbee6fcd0	-0.45114756
166	0x3d95d91b	0.073168
167	0x3e0a87a6	0.13528308
168	0xbf9a20a9	-1.2041217
169	0x3f2e6cd1	0.6813479
170	0xbe7ebedb	-0.24877493
171	0x3d4c5c68	0.049892813
172	0xbbf34d64	-0.007424997
173	0xbec191b9	-0.3780649
174	0x3ebcf417	0.36904976
175	0xbe15bc26	-0.14622554
176	0xbf85989a	-1.0437195
177	0xbd78e043	-0.060760748
178	0x3dc846a0	0.09779096
179	0xbb98c6a7	-0.004662353
180	0x3dc4266f	0.09577643
181	0xbd729a49	-0.05922917
182	0x3dd57f4b	0.1042467
183	0x3e6f634e	0.23377725
184	0xbe0a4fb0	-0.13506961
185	0xbd92785f	-0.07151865
186	0x3d611883	0.054955017
187	0xbfdc313e	-1.7202528
188	0x3cedf00e	0.029045131
189	0xbef0b2ae	-0.47011322
190	0x3e9b26ab	0.3030294
191	0xbc5676e6	-0.013089871
192	0xbf3a77ec	-0.72839236
193	0x3e672f02	0.22576526
194	0xbe209089	-0.15680136
195	0xbe546622	-0.20742086
196	0x3e68aa12	0.22721127
197	0x3ea6eb49	0.32601383
198	0x3f0f8764	0.56065965
199	0xbdd33c9d	-0.103142954
200	0xbe6a7301	-0.22895433
201	0x3cc24e58	0.023718998
202	0xbec9f168	-0.3944199
203	0xbeb63e93	-0.35594615
204	0x3eec8995	0.46198717
205	0xbe613a2b	-0.21994846
206	0xbeeb8b8c	-0.46004903
207	0x3ddefffe	0.108886704
208	0xbfe27ee0	-1.7694969
209	0xbf429619	-0.7601028
210	0xbf237120	-0.6384449
211	0x3f160668	0.58603525
212	0xbe9e0000	-0.30859375
213	0xbe98adb3	-0.29820022
214	0xbe91cc1d	-0.2847604
215	0x3e0fc441	0.14039709
216	0x3f57bdef	0.8427419
217	0x3f216de5	0.6305831
218	0x3e8a85bc	0.27055156
219	0x3e6ab889	0.22921957
220	0xbf746d3f	-0.95479196
221	0x3e33924a	0.17536274
222	0xbc750c05	-0.014956479
223	0x3f34b095	0.7058194
224	0xbd578848	-0.052620202
225	0x3da6bde8	0.081416905
226	0xbf2085da	-0.6270424
227	0xbe4b7c3e	-0.19871613
228	0xbf14180b	-0.57849187
229	0x3dc98e76	0.098416254
230	0xbf3d9c7d	-0.7406691
231	0xbf1b232e	-0.60600555
232	0x3e6160e6	0.2200962
233	0x3e1f584b	0.15561025
234	0xbe17cc6c	-0.14824075
235	0x3db88a5f	0.09010767
236	0x3ba89919	0.005145204
237	0x3e11dbb7	0.14243971
238	0xbe6d23e9	-0.2315823
239	0xbf3d67ea	-0.73986685
240	0x3e190804	0.14944464
241	0x3dd6ebdd	0.10494206
242	0xbe5db6d0	-0.21651769
243	0xbf26dead	-0.65183526
244	0xbf4cebd3	-0.8004734
245	0x3c87e17b	0.01658701
246	0x3f954303	1.1661075
247	0x3e974827	0.29547235
248	0x3f12d712	0.5735942
249	0x3f6140fa	0.8798977
250	0xbfa63617	-1.2985257
251	0x3e0d8bf9	0.13822927
252	0x3f1fa06b	0.62354153
253	0x3d09d765	0.03365268
254	0xbeb8d721	-0.3610163
255	0xbf157d9f	-0.5839481

fc4.bias f4 [5]
0	0xbe546af4	-0.20743924
1	0x3c18bf56	0.009322962
2	0x3d48673b	0.048926573
3	0x3d8037ad	0.06260619
4	0x3e1b1d93	0.15148
